public/models/rainfall_lstm.onnx (onnx, 15653 bytes, 2 tensors)

fc.weight f4 [1, 50]
0	0x3f9735b0	1.1813259
1	0xc05806b9	-3.3754103
2	0x402244cb	2.5354488
3	0xbe8bafd3	-0.2728258
4	0xbfeee384	-1.8663182
5	0xbfd538ef	-1.6658
6	0x4063220c	3.548953
7	0x405dc29b	3.4650028
8	0xbf934dc1	-1.1508104
9	0xc0538938	-3.3052502
10	0x3e62d0c7	0.22149955
11	0xbf7c748a	-0.98615324
12	0x400dfd2c	2.2185774
13	0xbfb01c0d	-1.375856
14	0x40163df5	2.3475316
15	0x3e9be82b	0.30450568
16	0x40021bbd	2.032943
17	0x3ff6fd13	1.9295982
18	0xc0156b55	-2.334676
19	0x404231a6	3.0342803
20	0xc01ac097	-2.4180048
21	0xc006b8ef	-2.1050375
22	0xc002af91	-2.0419657
23	0x3f915abd	1.1355816
24	0xc005259d	-2.0804207
25	0xbfd31787	-1.6491555
26	0x3fcc66d2	1.5968878
27	0xc0309b89	-2.759493
28	0xc036e6ef	-2.857845
29	0x3f82b541	1.0211564
30	0xbff41a32	-1.9070494
31	0x40178185	2.3672802
32	0x404db81d	3.2143624
33	0xc0079c0a	-2.1188989
34	0xc05198fe	-3.274963
35	0xbfd1bc4e	-1.6385591
36	0x40073b62	2.1129994
37	0xc01528ab	-2.3306072
38	0x4023f624	2.5618982
39	0x3f82f52a	1.0231068
40	0xbf6fbfa5	-0.936518
41	0x404bbba8	3.1833286
42	0xc063ea4f	-3.561176
43	0xbf944ad6	-1.1585338
44	0xc01a13d3	-2.40746
45	0x40289477	2.6340616
46	0xc024d891	-2.5757182
47	0x400f77bb	2.2416828
48	0xbfab5cf7	-1.3387746
49	0x3fc27034	1.5190492

val_17 f4 [1, 1, 50]
0	0x00000000	0.0
1	0x00000000	0.0
2	0x00000000	0.0
3	0x00000000	0.0
4	0x00000000	0.0
5	0x00000000	0.0
6	0x00000000	0.0
7	0x00000000	0.0
8	0x00000000	0.0
9	0x00000000	0.0
10	0x00000000	0.0
11	0x00000000	0.0
12	0x00000000	0.0
13	0x00000000	0.0
14	0x00000000	0.0
15	0x00000000	0.0
16	0x00000000	0.0
17	0x00000000	0.0
18	0x00000000	0.0
19	0x00000000	0.0
20	0x00000000	0.0
21	0x00000000	0.0
22	0x00000000	0.0
23	0x00000000	0.0
24	0x00000000	0.0
25	0x00000000	0.0
26	0x00000000	0.0
27	0x00000000	0.0
28	0x00000000	0.0
29	0x00000000	0.0
30	0x00000000	0.0
31	0x00000000	0.0
32	0x00000000	0.0
33	0x00000000	0.0
34	0x00000000	0.0
35	0x00000000	0.0
36	0x00000000	0.0
37	0x00000000	0.0
38	0x00000000	0.0
39	0x00000000	0.0
40	0x00000000	0.0
41	0x00000000	0.0
42	0x00000000	0.0
43	0x00000000	0.0
44	0x00000000	0.0
45	0x00000000	0.0
46	0x00000000	0.0
47	0x00000000	0.0
48	0x00000000	0.0
49	0x00000000	0.0
